directory/second_pressure.pth (torch, 242674 bytes, 10 tensors)

fc1.weight f4 [256, 6]
0.3759728 0.33474115 -0.13964741 0.40109456 -0.07361665 0.07752785 -0.19673343 0.23059015
0.30117542 -0.34639013 0.33809322 0.13743229 0.35081303 0.005308816 0.32879832 -0.026422856
0.20310703 0.18788823 -0.24785161 0.11460855 -0.2860804 -0.102501534 -0.14649248 0.37203574
-0.3148487 -0.1555445 -0.16640171 -0.18454818 0.08918597 -0.36733076 0.42222232 -0.34701207
0.18573318 0.15448484 -0.25889242 0.37215105 0.008858498 0.38148418 0.008166893 -0.1662699
0.13432689 -0.2058053 0.051162753 0.40256777 -0.025408795 -0.16155937 0.20373824 0.2400774
0.21379149 -0.15128072 -0.49607635 -0.24494962 -0.34893474 0.3498075 0.061294515 0.18097189
0.1285276 0.02300079 0.34036925 -0.27966338 0.0378712 -0.4205687 0.06618659 -0.21913365
0.14279266 -0.09145343 0.4574874 -0.20965247 -0.383672 -0.23171936 0.39692453 0.079550155
0.4683497 -0.2599298 -0.4037149 -0.37958428 -0.26000482 0.2276208 0.27739248 0.40526807
-0.23268402 -0.24668853 -0.020631846 -0.14053659 0.24951364 -0.10772643 0.22150418 -0.3304729
-0.18311206 0.13640484 0.09402751 -0.13514757 0.33001503 0.38803846 -0.3377404 -0.14343375
0.43422526 -0.049505543 -0.15748176 -0.41504276 -0.26341105 0.06729252 -0.02414132 -0.31820187
0.1916925 -0.3991937 -0.36278793 -0.055363756 -0.27802378 -0.21532583 0.6496258 0.11114196
-0.041187838 -0.31996962 -0.3543092 -0.08830855 0.15425058 -0.36368537 -0.23839812 -0.1783852
-0.04981145 -0.16627759 0.017717877 -0.2808862 -0.37579864 -0.25176072 -0.13077453 -0.3380823
0.4504496 0.002987149 0.31538665 0.0031229295 -0.3890064 0.27074772 -0.15692273 -0.1663626
-0.38722938 -0.384713 0.123455316 -0.1478616 0.17048311 -0.43168202 0.1837087 -0.37283638
-0.12096496 0.1480469 0.3284322 0.3438834 0.46882182 -0.2237234 0.08674662 -0.28983384
-0.03750052 -0.35819018 0.3506825 -0.3010288 0.27926135 0.19697227 0.34549522 -0.33748695
0.45141473 0.028314484 0.032386985 -0.3325737 0.26593897 0.03299287 -0.27554637 0.36188012
0.17190406 -0.15390286 -0.14304964 -0.0740093 0.4056046 -0.003953603 -0.22767541 -0.19171889
-0.24626729 0.37854773 0.49979043 -0.38402045 0.21852574 0.2539225 0.103702605 -0.26029167
0.16615348 0.22406721 0.13993725 -0.09636586 -0.17336002 0.033863425 -0.09808024 -0.26443812
0.31900236 0.27318582 -0.22289626 -0.15424506 -0.043310232 -0.039130557 0.09585713 -0.15860434
-0.36017784 -0.18170688 0.4498934 0.060872737 0.041629355 -0.25542524 -0.24925587 -0.4108678
-0.17953742 0.15265805 0.29134542 0.27160624 -0.23497708 -0.13123807 -0.07513269 0.47386706
0.039005745 -0.049790017 0.05739888 -0.13429509 -0.3548005 0.3664428 -0.2744957 -0.08193836
-0.3833105 0.27270657 0.4500471 0.040220484 -0.29508126 -0.41039982 -0.45850056 0.22055651
0.18149343 0.45992902 0.23486388 0.18850899 0.16825351 -0.3968669 -0.4307041 -0.1321198
0.38365906 -0.16604796 0.008954259 -0.2825753 -0.034698498 -0.31946984 -0.19863701 0.25751916
-0.18109879 0.2517154 -0.17165631 -0.42180687 -0.08070635 -0.13834031 -0.2120671 -0.5694802
00000000: 827f c03e 3163 ab3e bbff 0ebe 445c cd3e
00000010: 54c4 96bd ecc6 9e3d 7d74 49be d31f 6c3e
00000020: aa33 9a3e 0c5a b1be 8e1a ad3e 0dbb 0c3e
00000030: c49d b33e 94f5 ad3b 4158 a83e bf74 d8bc
00000040: 4afb 4f3e c665 403e d0cc 7dbe e3b7 ea3d
00000050: 2179 92be 53ec d1bd 2002 16be 787b be3e
00000060: d933 a1be 0f47 1fbe 3665 2abe 33fa 3cbe
00000070: 22a7 b63d c712 bcbe 862d d83e 91ab b1be
00000080: d730 3e3e 4631 1e3e 8c8d 84be 958a be3e
00000090: 3c23 113c e551 c33e 6fce 053c a842 2abe
000000a0: fd8c 093e a0be 52be 0990 513d 5d1d ce3e
000000b0: 1b26 d0bc d26f 25be c2a0 503e dad6 753e
000000c0: 28ec 5a3e 55e9 1abe b8fd fdbe 13d4 7abe
000000d0: 93a7 b2be f819 b33e f50f 7b3d b250 393e
000000e0: bd9c 033e 276c bc3c e144 ae3e 0a30 8fbe
000000f0: d51e 1b3d c854 d7be d68c 873d 9264 60be
00000100: 3d38 123e f04b bbbd ca3b ea3e 23af 56be
00000110: a870 c4be d747 6dbe b139 cb3e 31eb a23d
00000120: 88cb ef3e 8515 85be b8b3 cebe df58 c2be
00000130: 5a1f 85be 6d15 693e 6306 8e3e 4c7f cf3e
00000140: b844 6ebe eb9b 7cbe 1e04 a9bc d3e8 0fbe
00000150: 8180 7f3e ad9f dcbd fed1 623e be33 a9be
00000160: ba81 3bbe b6ad 0b3e 7f91 c03d 2064 0abe
00000170: bbf7 a83e faac c63e 4fec acbe 4ce0 12be
00000180: c652 de3e 53c6 4abd e642 21be 7c80 d4be
00000190: d0dd 86be a9d0 893d 04c4 c5bc 5beb a2be
000001a0: 0a4b 443e 1e63 ccbe 57bf b9be 1bc5 62bd
000001b0: 2259 8ebe 607e 5cbe e04d 263f 659e e33d
000001c0: 94b4 28bd 0fd3 a3be 0468 b5be 1ddb b4bd
000001d0: ddf3 1d3e f834 babe a31e 74be 9caa 36be
000001e0: 1707 4cbd ac44 2abe 1525 913c 51d0 8fbe
000001f0: ae68 c0be c8e6 80be c2e9 05be 2019 adbe
00000200: 54a1 e63e 0bc4 433b 5c7a a13e 10aa 4c3b
00000210: d92b c7be 729f 8a3e 5ab0 20be f55a 2abe
00000220: ee42 c6be 1af9 c4be 24d6 fc3d 0869 17be
00000230: 2093 2e3e 6d05 ddbe 221e 3c3e 69e4 bebe
00000240: 7abc f7bd 9b99 173e 4428 a83e 7c11 b03e
00000250: 6a09 f03e bf17 65be 36a8 b13d 1a65 94be
00000260: 259a 19bd b464 b7be a88c b33e 7220 9abe
00000270: 58fb 8e3e 19b3 493e c0e4 b03e 17cb acbe
00000280: d51f e73e c7f3 e73c 37a8 043d 1a47 aabe
00000290: 2729 883e 8823 073d 6a14 8dbe 5a48 b93e
000002a0: 9e07 303e b698 1dbe 9b7b 12be 3092 97bd
000002b0: 68ab cf3e 3a8d 81bb be23 69be f551 44be
000002c0: 7e2d 7cbe 02d1 c13e 88e4 ff3e 549e c4be
000002d0: 36c5 5f3e 2102 823e 0862 d43d f344 85be
000002e0: 2324 2a3e e071 653e b64b 0f3e 775b c5bd
000002f0: 4a85 31be 60b4 0a3d 4bde c8bd 6f64 87be
00000300: 4754 a33e 03df 8b3e eb3e 64be 6bf2 1dbe
00000310: 1266 31bd 5d47 20bd be50 c43d 2d69 22be
00000320: 3b69 b8be 5e11 3abe 6d58 e63e b155 793d
00000330: 8b83 2a3d 19c7 82be ee3c 7fbe 445d d2be
00000340: a8d8 37be 6452 1c3e 3a2b 953e f90f 8b3e
00000350: d59d 70be 4663 06be 2bdf 99bd b49e f23e
00000360: 7dc4 1f3d 9ef0 4bbd 171b 6b3d a784 09be
00000370: 69a8 b5be 649e bb3e b38a 8cbe 4dcf a7bd
00000380: 4641 c4be 32a0 8b3e 936c e63e 3cbe 243d
00000390: e414 97be ed1f d2be 96c0 eabe 91d9 613e
000003a0: 6ad9 393e d17b eb3e 2880 703e 8008 413e
000003b0: a64a 2c3e 2332 cbbe 3f85 dcbe 6a4a 07be
000003c0: f66e c43e 7a08 2abe e2b4 123c b6ad 90be
000003d0: 0320 0ebd 8d91 a3be 8067 4bbe 8dd9 833e
000003e0: f671 39be d7e0 803e acc6 2fbe 12f7 d7be
000003f0: 5f49 a5bd 15a9 0dbe 1e28 59be 74c9 11bf

fc1.bias f4 [256]
-0.087477796 -0.20553331 -0.20097965 -0.13562097 -0.2524868 0.4895943 0.0987704 0.5823442
-0.03394523 0.08835336 -0.002650315 -0.027178066 -0.26773056 -0.2299179 -0.15568468 -0.049239453
0.21563624 0.20205873 0.3061435 -0.06753565 -0.22003487 -0.42647585 -0.28697082 -0.27826253
0.12676427 0.1657455 0.25565913 -0.12553096 -0.007954467 -0.20596981 -0.043548647 0.17191222
0.008903434 -0.23395512 0.13780917 0.2988815 -0.13874277 -0.45095444 0.23677014 -0.09303475
-0.23352088 0.18681096 -0.08688181 -0.16436124 -0.18419054 0.08304294 -0.4361587 0.16627479
0.0024486429 0.18618858 -0.00963884 -0.098903544 0.08773452 0.3534805 -0.27713388 0.23322302
0.14693007 -0.30793282 0.21933909 -0.3307108 -0.0910165 -0.27949375 -0.30503714 0.40413654
-0.24739718 0.19546342 -0.38287282 -0.20578311 -0.04386297 0.39197668 -0.251105 0.14461043
0.052737817 0.25487253 0.14427866 0.095522255 -0.27393407 -0.34850517 0.32148296 -0.2919174
-0.2537368 0.0052452227 0.5601956 -0.09583613 -0.31733483 -0.1402495 0.37456548 0.22936869
0.4183736 -0.047134694 0.21653178 -0.25353494 0.07886612 0.18440063 0.26603904 -0.29932767
-0.24970387 -0.0024765423 -0.39323735 -0.4015588 -0.3727432 -0.05149909 0.3277531 0.25598925
0.17745154 0.32660115 -0.3637766 -0.038128037 -0.14336807 -0.20130424 0.43091983 -0.29118967
0.02246892 -0.3213283 -0.060535613 -0.18605638 0.23771118 -0.31429866 0.34066844 -0.22752745
0.3453765 -0.38481745 0.2568067 -0.2828355 -0.10835119 -0.17376982 0.34300348 0.20986663
-0.3962839 0.01468463 -0.35046956 0.36479276 0.15920205 -0.18658395 -0.30089462 0.17555493
-0.21590598 0.12918824 0.19319157 0.26195905 0.048290934 -0.31403223 0.25745866 -0.17146927
-0.16921082 -0.19356401 0.52812576 0.25384516 -0.0063794963 0.16348721 -0.39882642 0.13297507
-0.33470297 0.15028664 -0.3341684 -0.18432264 0.46287343 0.31458876 -0.21061917 -0.20157668
-0.103718154 0.1494098 -0.067269616 -0.18669975 -0.25950238 0.07161021 0.2944213 -0.30410537
0.20417757 0.3593951 0.38002327 -0.24788359 -0.13195886 0.4417034 0.31385162 0.38539752
-0.16207157 0.24078 0.29613438 -0.27376884 0.018679067 -0.050695345 0.31897357 -0.22486477
0.10673458 0.38667756 -0.40358654 -0.3221621 -0.117991164 0.3629282 0.1633368 -0.3704777
-0.014542672 -0.4079923 -0.38427314 0.41423365 0.35619393 -0.1558004 0.05013462 -0.007385491
0.17272666 -0.051907614 -0.24092916 0.36772192 0.035939828 0.097051576 -0.27903885 0.077461846
0.29188773 0.36992726 0.14805003 0.58507806 0.067899875 0.021068389 0.189267 0.49767834
-0.19628584 0.3382918 0.12041574 0.0058548036 0.26368275 -0.1344869 0.33546057 0.3825843
-0.22416784 -0.25825408 -0.42744136 -0.08087471 -0.43748537 -0.20105366 0.13528866 0.28585956
0.2421883 0.31006733 0.17529956 -0.2425049 -0.33024812 -0.03552641 0.56206757 -0.01145227
0.009371771 -0.46330464 -0.16964307 -0.28590766 0.48229676 -0.14169072 -0.41666526 -0.0019213484
-0.10931235 -0.10047937 0.14222695 0.49605918 -0.47356865 -0.29565656 -0.009410735 -0.3922895
00000000: 8f27 b3bd 5377 52be 9ccd 4dbe 39e0 0abe
00000010: f345 81be 1bac fa3e 2348 ca3d 8214 153f
00000020: 270a 0bbd 9bf2 b43d e8b0 2dbb 89a4 debc
00000030: fb13 89be 996f 6bbe ce6b 1fbe 4faf 49bd
00000040: bfcf 5c3e 7ce8 4e3e d7be 9c3e 2250 8abd
00000050: d250 61be 0b5b dabe d7ed 92be 6d78 8ebe
00000060: 7ece 013e 30b9 293e c1e5 823e 308b 00be
00000070: 7453 02bc c0e9 52be 1160 32bd c209 303e
00000080: b5df 113c ee91 6fbe d91d 0d3e ff06 993e
00000090: 9612 0ebe 80e3 e6be df73 723e 0189 bebd
000000a0: 1920 6fbe 5f4b 3f3e 17ef b1bd 504e 28be
000000b0: 729c 3cbe 6b12 aa3d 3150 dfbe f043 2a3e
000000c0: 6979 203b 38a8 3e3e 3aec 1dbc f18d cabd
000000d0: 28ae b33d 65fb b43e 7ee4 8dbe 04d2 6e3e
000000e0: d674 163e 5fa9 9dbe 6d9a 603e ed52 a9be
000000f0: dc66 babd ce19 8fbe d42d 9cbe fcea ce3e
00000100: b055 7dbe 9027 483e e807 c4be cfb8 52be
00000110: a8a9 33bd 2bb1 c83e d690 80be c214 143e
00000120: 9c03 583d a77e 823e c9bd 133e 2ca1 c33d
00000130: 1641 8cbe 456f b2be 6a99 a43e 3376 95be
00000140: cae9 81be 1ee0 ab3b fb68 0f3f bc45 c4bd
00000150: b679 a2be 919d 0fbe 0cc7 bf3e a0df 6a3e
00000160: 1135 d63e 4f10 41bd 82ba 5d3e 55cf 81be
00000170: 8f84 a13d 85d3 3c3e 4536 883e 7a41 99be
00000180: 5fb2 7fbe 7c4d 22bb 6856 c9be 1d99 cdbe
00000190: 32d8 bebe b6f0 52bd 41cf a73e 0611 833e
000001a0: dbb5 353e 4438 a73e ed40 babe 252c 1cbd
000001b0: 14cf 12be b322 4ebe 86a1 dc3e d016 95be
000001c0: be10 b83c 2585 a4be 31f4 77bd 9085 3ebe
000001d0: 8f6a 733e c1eb a0be 186c ae3e f5fc 68be
000001e0: 30d5 b03e cb06 c5be 2b7c 833e d1cf 90be
000001f0: 3be7 ddbd b7f0 31be 279e af3e 47e7 563e
00000200: b9e5 cabe cd97 703c bf70 b3be 1ec6 ba3e
00000210: dd05 233e dd0f 3fbe dc0e 9abe acc4 333e
00000220: 7516 5dbe ec49 043e 03d4 453e 7f1f 863e
00000230: b7cc 453d d5c8 a0be 9fd1 833e a495 2fbe
00000240: 9a45 2dbe a535 46be 4033 073f fef7 813e
00000250: 180b d1bb 3169 273e fa32 ccbe 9e2a 083e
00000260: 305e abbe bee4 193e 1f18 abbe 13bf 3cbe
00000270: bffd ec3e c711 a13e 8dac 57be 1e6a 4ebe
00000280: 2f6a d4bd e2fe 183e a7c4 89bd 382e 3fbe
00000290: 7fdd 84be 60a8 923d 63be 963e b3b3 9bbe
000002a0: ed13 513e a202 b83e 6992 c23e 32d5 7dbe
000002b0: 3920 07be f326 e23e 29b1 a03e d352 c53e
000002c0: 17f6 25be 088f 763e ed9e 973e 6e2b 8cbe
000002d0: d804 993c eca5 4fbd 8150 a33e f342 66be
000002e0: a997 da3d 9afa c53e e5a2 cebe 6ef2 a4be
000002f0: 5aa5 f1bd bad1 b93e c341 273e 41af bdbe
00000300: 6344 6ebc 5ee4 d0be 73bf c4be 6f16 d43e
00000310: 0d5f b63e 248a 1fbe f659 4d3d fd01 f2bb
00000320: 42df 303e 149d 54bd 22b6 76be 0c46 bc3e
00000330: a435 133d fac2 c63d 2ede 8ebe 51a4 9e3d
00000340: 4f72 953e 1b67 bd3e 6d9a 173e adc7 153f
00000350: 170f 8b3d 9d97 ac3c 35cf 413e b2cf fe3e
00000360: 28ff 48be 9534 ad3e 879c f63d a7d9 bf3b
00000370: 6d01 873e efb6 09be 7dc1 ab3e 17e2 c33e
00000380: 418c 65be e139 84be 98d9 dabe a4a1 a5bd
00000390: 15fe dfbe 03e1 4dbe 1c89 0a3e 2f5c 923e
000003a0: 3600 783e 25c1 9e3e ba81 333e 3453 78be
000003b0: 4816 a9be 2484 11bd a9e3 0f3f 4da2 3bbc
000003c0: 0e8c 193c 4436 edbe eab6 2dbe 7d62 92be
000003d0: 9aef f63e 5f17 11be 2655 d5be c1d5 fbba
000003e0: 27df dfbd 21c8 cdbd f1a3 113e 78fb fd3e
000003f0: 9777 f2be 4c60 97be 7c2f 1abc 2bda c8be

fc2.weight f4 [128, 256]
-0.12165921 0.041080266 0.06797932 0.035384446 0.0041950857 -0.1553706 -0.00065578247 -0.03300125
-0.08788805 -0.04480132 0.021311603 -0.13092305 -0.001727349 0.010062423 -0.003286874 0.030890474
0.077050224 -0.039775234 0.0055857343 -0.104249544 0.059512097 0.07390919 -0.012747071 0.007155049
0.032592732 -0.0012724942 0.034430202 0.026869547 -0.08514974 0.084599145 0.050559726 0.006103289
-0.010136064 -0.02333665 -0.025096484 -0.16551363 -0.0697229 0.108598046 0.10463641 -0.036110535
-0.009570479 -0.023957543 0.12003802 0.09325495 -0.063151635 0.12031382 0.057056006 0.0056132386
-0.05608642 0.008407417 -0.008833033 0.04816976 0.05255576 -0.011101842 -0.043565333 -0.022689478
0.05432703 0.01803936 0.028190985 0.049050547 0.07331578 0.055832516 0.033062294 0.052980017
-0.030552471 0.019778809 -0.057417367 0.07084249 -0.087269135 -0.059653256 0.06397112 0.1187654
-0.14473414 0.06178102 0.09688029 0.11292362 0.094153784 0.05889629 0.057910014 0.03828353
0.061601374 0.04042857 -0.09674989 -0.03151844 -0.06386466 0.115594484 0.018595176 -0.061259635
-0.0039672735 -0.13838159 0.116709076 0.03945039 -0.005697658 -0.012069664 -0.015406979 0.004094831
0.049217854 0.018643739 0.083819814 0.019611737 -0.06542657 -0.009988515 0.028387837 -0.064858764
-0.063125655 0.07547656 0.057899583 -0.07464257 0.10135448 -0.029307283 0.039943654 0.06638282
0.044928208 0.12258295 -0.05709998 0.047321327 -0.06149062 -0.0636986 0.0036574516 0.02472609
0.03828707 -0.106881976 0.052318864 -0.03476194 0.031126436 -0.055537403 0.07428591 -0.02435442
-0.01557271 -0.08844992 0.011918688 0.016693732 0.07606929 0.06612996 0.07920712 0.036947187
0.099629216 0.10272753 -0.08847279 -0.08357746 0.0121060815 0.15067096 -0.009719749 -0.022759134
0.033973437 0.029036557 0.0744775 0.017918376 0.04794261 -0.0707508 -0.00038996828 -0.0014669362
0.045665473 0.067092456 -0.03345083 -0.07833761 0.06779931 -0.115479685 -0.061160613 0.043379616
-0.07783708 -0.012429689 -0.08532219 0.08795467 0.016369367 0.017636951 0.09537887 0.04097614
0.06687603 0.020059766 -0.072521634 -0.026334727 0.12022961 -0.012167919 -0.012472487 0.12285697
-0.036168903 0.07200142 0.015025997 -0.017743638 -0.000844269 0.03443541 -0.05907023 0.11775125
0.062326394 0.02961701 0.0796173 0.0058287554 -0.049404565 0.03161376 0.16542444 0.08249264
0.07579478 -0.04882713 -0.028409608 -0.01603419 0.018549085 0.018290794 -0.04840308 -0.037422452
0.10602991 0.12865116 -0.008577892 -0.0011446354 -0.03637943 0.11293177 0.016075516 0.06494095
-0.006376197 -0.07236525 0.08965476 -0.08068223 0.078343146 -0.13757223 0.06885457 -0.028673723
0.1238552 -0.042905334 0.096966416 -0.092520334 0.027273415 -0.06279793 0.06996567 -0.12367252
0.059570838 0.046575394 -0.017471928 -0.048828572 0.030025877 0.024124557 0.017628914 -0.037756156
0.0047382996 -0.011779754 -0.14269659 0.020733804 0.034923483 -0.00956959 0.09952413 0.041402586
-0.027025543 -0.07364452 0.054535065 0.0049601914 -0.020812536 -0.015583832 0.08964154 -0.038856596
-0.092090815 -0.07892618 0.047846932 -0.024774347 -0.013661722 0.02785119 0.028605228 -0.02716139
00000000: 7728 f9bd c843 283d be38 8b3d 48ef 103d
00000010: ee76 893b 7819 1fbe d1e8 2bba 522c 07bd
00000020: a6fe b3bd 9781 37bd ac95 ae3c b110 06be
00000030: 3768 e2ba dcdc 243c 9868 57bb 050e fd3c
00000040: 82cc 9d3d 5beb 22bd 8908 b73b c980 d5bd
00000050: f5c2 733d b45d 973d 17d9 50bc e774 ea3b
00000060: f57f 053d d2c9 a6ba af06 0d3d 861d dc3c
00000070: fd62 aebd 5142 ad3d b717 4f3d 19fe c73b
00000080: bc11 26bc 812c bfbc 2497 cdbc 687c 29be
00000090: e1ca 8ebd a768 de3d 9d4b d63d a4e8 13bd
000000a0: 80cd 1cbc 9c42 c4bc 7ed6 f53d 74fc be3d
000000b0: a555 81bd 1867 f63d 8fb3 693d 42ef b73b
000000c0: e0ba 65bd 43bf 093c 6db8 10bc a74d 453d
000000d0: b544 573d 80e4 35bc 9071 32bd 49df b9bc
000000e0: 0586 5e3d 48c7 933c c8f0 e63c 3ae9 483d
000000f0: 9526 963d a3b0 643d 546c 073d 9301 593d
00000100: 2d49 fabc 2b07 a23c 792e 6bbd de15 913d
00000110: 29ba b2bd f956 74bd 4a03 833d 463b f33d
00000120: 3035 14be 180e 7d3d 2c69 c63d 8044 e73d
00000130: b3d3 c03d 3c3d 713d 0d33 6d3d 31cf 1c3d
00000140: b951 7c3d 6e98 253d ce24 c6bd 7b19 01bd
00000150: 7acb 82bd cdbc ec3d e954 983c 62eb 7abd
00000160: e7ff 81bb e7b3 0dbe 2b05 ef3d bb96 213d
00000170: 6bb3 babb d7bf 45bc 8e6d 7cbc ef2d 863b
00000180: a998 493d c1ba 983c b9a9 ab3d cba8 a03c
00000190: 5efe 85bd dea6 23bc 9c8d e83c acd4 84bd
000001a0: 0648 81bd 7493 9a3d 1d28 6d3d 34de 98bd
000001b0: f092 cf3d d415 f0bc f59b 233d b7f3 873d
000001c0: a406 383d c50c fb3d abe1 69bd 02d4 413d
000001d0: 97dd 7bbd 6974 82bd dbb1 6f3b 5e8e ca3c
000001e0: e7d2 1c3d f0e4 dabd 4e4c 563d 8962 0ebd
000001f0: defc fe3c 307b 63bd 3623 983d ec82 c7bc
00000200: ae24 7fbc 3b25 b5bd 9a46 433c 4bc1 883c
00000210: 37ca 9b3d 256f 873d 5837 a23d ef55 173d
00000220: 670a cc3d d062 d23d 3931 b5bd a92a abbd
00000230: 9658 463c 7d49 1a3e 953f 1fbc 5d71 babc
00000240: bb27 0b3d 13de ed3c a987 983d 8fc9 923c
00000250: 785f 443d cce5 90bd a874 ccb9 3646 c0ba
00000260: b80b 3b3d c567 893d bd03 09bd 786f a0bd
00000270: 5dda 8a3d 9d80 ecbd 8d83 7abd d3ae 313d
00000280: 0c69 9fbd e5a5 4bbc 66bd aebd 9421 b43d
00000290: 0d19 863c 5e7b 903c ff55 c33d 99d6 273d
000002a0: 4df6 883d 6154 a43c 3986 94bd edbb d7bc
000002b0: f13a f63d f45b 47bc 6759 4cbc 6f9c fb3d
000002c0: d825 14bd 7b75 933d 992f 763c 1b5b 91bc
000002d0: ef51 5dba 250c 0d3d a0f3 71bd 9127 f13d
000002e0: f649 7f3d 5f9f f23c 650e a33d 25ff be3b
000002f0: 715c 4abd 6e7d 013d 0665 293e e7f1 a83d
00000300: 4b3a 9b3d f5fe 47bd 44bb e8bc 225a 83bc
00000310: 40f4 973c 93d6 953c 4f42 46bd 4948 19bd
00000320: 3626 d93d 21bd 033e 498a 0cbc 9707 96ba
00000330: 9902 15bd c648 e73d cdb0 833c c3ff 843d
00000340: 6bef d0bb 3b34 94bd ea9c b73d ba3c a5bd
00000350: 5f72 a03d bcdf 0cbe a003 8d3d 28e5 eabc
00000360: cca7 fd3d 81bd 2fbd 5496 c63d 4d7b bdbd
00000370: 7f6c df3c 339c 80bd 294a 8f3d 0548 fdbd
00000380: 8d00 743d d7c5 3e3d 4a21 8fbc 7800 48bd
00000390: d4f8 f53c dda0 c53c 836a 903c 33a6 1abd
000003a0: bd43 9b3b dfff 40bc 0e1f 12be f0d9 a93c
000003b0: ed0b 0f3d c5c9 1cbc 4fd3 cb3d c295 293d
000003c0: ac64 ddbc f0d2 96bd 2960 5f3d 1a89 a23b
000003d0: 0d7f aabc 5453 7fbc fc95 b73d 1828 1fbd
000003e0: 1c9a bcbd 0da4 a1bd 25fb 433d 92f3 cabc
000003f0: 6ad5 5fbc 2e28 e43c 8355 ea3c 9081 debc

fc2.bias f4 [128]
-0.08256621 0.004064911 -0.053235848 -0.052675106 -0.037580416 -0.022652006 -0.057715345 -0.04918309
-0.015867513 0.11142871 -0.0072486284 -0.20877306 0.015065549 -0.026885275 0.0014902066 0.31786743
0.05269879 0.045137856 -0.026868507 -0.09861271 -0.0009422599 0.07610515 -0.03696273 -0.03359854
-0.016814115 0.0005444207 0.022240903 -0.018389983 0.087425835 0.014666637 0.035949614 0.06800723
-0.08211482 -0.06625853 0.005396903 -0.04454952 0.22871663 -0.058893412 0.21651964 -0.054816183
-0.11666128 -0.09259702 0.25470805 -0.0019717833 0.02972563 0.13627125 -0.15968116 0.06980161
0.3643496 -0.016280886 -0.038412917 -0.114253186 0.120387696 -0.039987773 -0.010447802 0.03852917
0.019393481 -0.01990809 -0.049036983 -0.07523654 -0.019800628 0.022740355 0.1584621 -0.036117572
-0.083987676 -0.03515849 0.032059807 0.0018938801 -0.017105589 -0.09779312 0.008109902 -0.054376233
-0.025986945 0.015492862 0.06793444 0.21184015 0.20448114 0.061326444 0.35963878 -0.09748584
0.02403291 0.08658074 0.045417797 0.055961903 -0.055378933 -0.06218763 -0.074444175 -0.082333
-0.19012412 0.13732813 0.37754488 0.036925875 0.10121169 -0.04890424 -0.089934304 -0.09344068
0.025317581 -0.009046765 -0.05601389 0.090728045 -0.03558774 0.0038161597 -0.09381388 -0.06109018
0.10079536 0.0056159734 0.075965315 0.08288273 0.014442553 -0.013611911 -0.013981197 0.014488351
0.09188171 0.0038191588 -0.06153264 -0.12607215 -0.00932539 0.013054488 0.2696604 -0.06645664
0.12609825 -0.059815075 0.014457075 0.0628269 0.3442061 0.15539478 -0.038691755 0.22412583
00000000: 7918 a9bd f232 853b d50d 5abd dac1 57bd
00000010: eced 19bd b390 b9bc ed66 6cbd 3574 49bd
00000020: 96fc 81bc bc34 e43d e785 edbb 9bc8 55be
00000030: 7ed5 763c 823e dcbc 0953 c33a 85bf a23e
00000040: b0da 573d 79e2 383d 581b dcbc 76f5 c9bd
00000050: fe01 77ba 04dd 9b3d 3b66 17bd 9f9e 09bd
00000060: c1bd 89bc 74b7 0e3a 8e32 b63c 97a6 96bc
00000070: 510c b33d 564c 703c e73f 133d 6047 8b3d
00000080: d12b a8bd 8db2 87bd 81d8 b03b 8f79 36bd
00000090: b134 6a3e 383a 71bd 53b7 5d3e ef86 60bd
000000a0: 1cec eebd 82a3 bdbd 1869 823e 0939 01bb
000000b0: 2a83 f33c b18a 0b3e 7583 23be 26f4 8e3d
000000c0: 088c ba3e 7e5f 85bc dd56 1dbd 93fd e9bd
000000d0: d38d f63d 38ca 23bd 422d 2bbc c3d0 1d3d
000000e0: 14df 9e3c 4a16 a3bc 01db 48bd 9d15 9abd
000000f0: ed34 a2bc fb49 ba3c e443 223e 05f0 13bd
00000100: bb01 acbd 5902 10bd 2551 033d 123c f83a
00000110: 0521 8cbc c247 c8bd 65df 043c 9db9 5ebd
00000120: 93e2 d4bc c6d5 7d3c 3621 8b3d a0ec 583e
00000130: 8163 513e 7031 7b3d 9322 b83e a8a6 c7bd
00000140: aae0 c43c 3e51 b13d 0308 3a3d 4f38 653d
00000150: 05d5 62bd 75b8 7ebd 3076 98bd 349e a8bd
00000160: e6af 42be bf9f 0c3e 904d c13e 963f 173d
00000170: 1348 cf3d d04f 48bd 7a2f b8bd d45d bfbd
00000180: d166 cf3c e238 14bc d26e 65bd a0cf b93d
00000190: 73c4 11bd 8918 7a3b 7e21 c0bd b239 7abd
000001a0: cc6d ce3d 3306 b83b b493 9b3d 6cbe a93d
000001b0: 75a0 6c3c 7e04 5fbc 6411 65bc 8c60 6d3c
000001c0: 7a2c bc3d da4a 7a3b a609 7cbd 0f19 01be
000001d0: 85c9 18bc 7ee2 553c ee10 8a3e 6b1a 88bd
000001e0: e61f 013e a700 75bd 5edd 6c3c 64ab 803d
000001f0: c83b b03e cf1f 1f3e 3f7b 1ebd 3e81 653e

fc3.weight f4 [128, 128]
0.046204306 0.02901319 0.045801185 0.043142352 0.004724141 -0.07276443 0.0009283676 -0.030100603
-0.07244134 -0.047309797 -0.026583575 -0.041549306 0.06493049 -0.045317564 -0.008640778 -0.0419088
0.069770716 -0.063424066 0.023592398 -0.094573475 0.020403355 -0.060337525 0.00815318 0.0279309
0.02791229 -0.0116814375 -0.036761373 -0.056547258 -0.079469204 -0.027541902 -0.027728632 0.07860203
0.04300819 -0.008388902 0.04811614 -0.01483794 -0.09736205 -0.036395207 0.079242624 0.048884474
-0.042218927 -0.04145395 -0.02205956 -0.019810611 -0.06639019 -0.012076143 -0.07835458 0.0025554197
-0.00037911665 0.010804751 0.029994136 0.013833931 -0.054969713 -0.021158982 -0.07660822 -0.0042606923
0.05823376 -0.021888763 -0.00091640267 0.044502776 0.033892352 0.038942814 0.0028578998 -0.001683763
0.0552461 -0.060992863 0.06359265 -0.039622486 -0.05335109 0.07635835 0.07810882 0.0755042
0.0014277586 -0.00810489 -0.049620412 -0.00093871675 0.0058244066 -0.04877603 -0.08987748 -0.08341232
0.0054436997 0.039047968 0.0019532782 0.062382463 -0.026021596 -0.0398217 0.04683245 -0.0029012335
5.6764315e-05 0.029466234 -0.05235747 -0.040215712 0.028168775 -0.040144715 0.0029774462 0.06223479
0.042691354 0.03200612 0.013549374 -0.08798623 -0.01006991 0.012079114 -0.056186598 -0.055638522
-0.07495655 0.06640309 -0.01279007 -0.04909104 -0.04578878 -0.063087344 0.08407407 -0.031837873
-0.061503854 -0.091788776 0.055376075 0.033823058 0.06391037 0.08089923 -0.022412147 -0.07424413
-0.030742418 0.0046643666 0.0658095 0.0108886035 0.030134091 0.06497896 -0.036949594 -0.0857143
-0.16016127 -0.08194537 0.040834818 -0.04499469 -0.11555352 -0.07618167 0.07561098 0.10141577
-0.09463359 -0.07965542 0.0696379 0.0021945834 -0.014518779 -0.0059957444 -0.04047568 -0.26973987
0.050367467 -0.038741823 -0.051804584 -0.05547775 0.030904353 -0.03425164 0.074445195 -0.08552868
-0.09308379 -0.07905858 0.0830079 0.04672804 -0.032973062 -0.038071845 0.122476704 -0.14007236
-0.08163882 -0.057039164 0.0966165 -0.07811764 0.08395751 0.0048285695 -0.04439684 -0.07696687
0.09888539 -0.07210225 -0.040666364 0.15924147 -0.020613011 0.011978261 0.17996164 -0.00036457393
-0.074137695 0.109499946 0.0006249214 -0.015167232 0.28854918 -0.14998446 -0.13052444 -0.009071311
0.16671309 -0.23910697 -0.03974502 -0.008690233 0.009965999 -0.13086082 -0.0951173 0.08811902
0.2088427 0.04384184 -0.024219628 0.008518516 0.11256242 0.015669826 0.119860515 -0.044794638
0.07471644 0.04250142 0.026539199 0.113029666 0.107814655 0.07894457 -0.12362227 0.029268863
-0.0041055665 0.009915215 0.10513302 -0.010005446 0.12184674 0.05944663 -0.086071976 -0.035007887
-0.017692469 -0.12463079 0.002542145 0.03431242 -0.07544328 0.094716154 -0.074308604 0.051521882
-0.118796356 -0.15969147 -0.061932024 0.15285374 0.04672048 -0.044457454 0.11027596 0.013962205
-0.010461084 -0.12648138 0.07938848 -0.18554616 -0.15906082 0.17583854 0.02033935 0.0067487294
0.22883224 -0.048209436 -0.07389274 -0.056043632 -0.013789661 -0.13688995 -0.0146777 -0.18753321
-0.14349884 0.11598755 0.24118112 0.07442241 -0.01601372 -0.053507328 0.083356544 -0.15177394
00000000: ba40 3d3d 12ad ed3c 069a 3b3d 09b6 303d
00000010: f8cc 9a3b 8405 95bd b25d 733a 8a95 f6bc
00000020: 205c 94bd ebc7 41bd ccc5 d9bc 9b2f 2abd
00000030: 47fa 843d e99e 39bd 0d92 0dbc 90a8 2bbd
00000040: f3e3 8e3d 7ae4 81bd d844 c13c bdaf c1bd
00000050: f024 a73c 7b24 77bd ea94 053c 58cf e43c
00000060: 51a8 e43c 8063 3fbc 1893 16bd 199e 67bd
00000070: c0c0 a2bd 8e9f e1bc 2827 e3bc 1afa a03d
00000080: 5b29 303d 9b71 09bc 6e15 453d d51a 73bc
00000090: c165 c7bd 2413 15bd f549 a23d 163b 483d
000000a0: c1ed 2cbd 9ecb 29bd 40b6 b4bc dd49 a2bc
000000b0: 94f7 87bd 04db 45bc 5e78 a0bd d478 273b
000000c0: 2dc4 c6b9 6906 313c 43b6 f53c b6a7 623c
000000d0: ec27 61bd 9a55 adbc c5e4 9cbd 479d 8bbb
000000e0: 8686 6e3d 1050 b3bc be3a 70ba 8b48 363d
000000f0: b5d2 0a3d 8082 1f3d 9a4b 3b3b b6b1 dcba
00000100: bc49 623d a7d3 79bd dd3c 823d 304b 22bd
00000110: ac86 5abd c461 9c3d 84f7 9f3d f2a1 9a3d
00000120: a123 bb3a 5fca 04bc c63e 4bbd 3714 76ba
00000130: aada be3b 60c9 47bd af11 b8bd 14d4 aabd
00000140: 1061 b23b c3f0 1f3d 9202 003b c184 7f3d
00000150: 3e2b d5bc 141c 23bd 62d3 3f3d 9f22 3ebb
00000160: 3816 6e38 2c63 f13c c974 56bd 3bb9 24bd
00000170: 34c2 e63c c96e 24bd 4221 433b e8e9 7e3d
00000180: 21dd 2e3d d918 033d 32fe 5d3c 2032 b4bd
00000190: 44fc 24bc 7ae7 453c eb23 66bd 38e5 63bd
000001a0: d282 99bd 58fe 873d 718d 51bc b013 49bd
000001b0: 048d 3bbd f033 81bd 072f ac3d 6e68 02bd
000001c0: 77eb 7bbd c1fb bbbd 06d2 623d 0c8a 0a3d
000001d0: 71e3 823d 7fae a53d ae99 b7bc 4e0d 98bd
000001e0: 86d7 fbbc 8bd7 983b 22c7 863d 1d66 323c
000001f0: c5db f63c b013 853d 7558 17bd fb8a afbd
00000200: 5101 24be f9d2 a7bd 6942 273d 5a4c 38bd
00000210: 53a7 ecbd 2305 9cbd eed9 9a3d 12b3 cf3d
00000220: 41cf c1bd 6122 a3bd 519e 8e3d 00d3 0f3b
00000230: 2ce0 6dbc f377 c4bb d4c9 25bd 581b 8abe
00000240: 1e4e 4e3d bfaf 1ebd 0b31 54bd a33c 63bd
00000250: 202b fd3c 734b 0cbd b976 983d a929 afbd
00000260: b7a2 bebd 77e9 a1bd 0c00 aa3d e765 3f3d
00000270: c30e 07bd 39f1 1bbd 11d5 fa3d 216f 0fbe
00000280: 4132 a7bd e6a1 69bd dfde c53d 24fc 9fbd
00000290: eaf1 ab3d fa38 9e3b 76d9 35bd cea0 9dbd
000002a0: 6c84 ca3d 58aa 93bd c691 26bd 3210 233e
000002b0: 9edc a8bc 7840 443c dd47 383e 4924 bfb9
000002c0: 81d5 97bd 8241 e03d c4d1 233a fb7f 78bc
000002d0: b8bc 933e 8795 19be 33a8 05be d69f 14bc
000002e0: d6b6 2a3e 75d8 74be adcb 22bd 7b61 0ebc
000002f0: 6e48 233c 6100 06be dccc c2bd bf77 b43d
00000300: dcda 553e 8093 333d 3e68 c6bc 3f91 0b3c
00000310: 2087 e63d 025e 803c 6e79 f53d 957a 37bd
00000320: ef04 993d f815 2e3d bc68 d93c 197c e73d
00000330: eecd dc3d b1ad a13d ac2d fdbd 41c5 ef3c
00000340: fd87 86bb 6d73 223c fb4f d73d e2ed 23bc
00000350: c98a f93d 4f7e 733d 8146 b0bd 6e64 0fbd
00000360: ccef 90bc 6d3e ffbd 1e9a 263b 2e8b 0c3d
00000370: 0282 9abd 8bfa c13d 1c2f 98bd 9c08 533d
00000380: 814b f3bd 2986 23be 6fac 7dbd b185 1c3e
00000390: f95d 3f3d 0519 36bd 5dd8 e13d bbc1 643c
000003a0: f764 2bbc 5684 01be 6d96 a23d d0ff 3dbe
000003b0: d7e0 22be 050f 343e b59e a63c 7224 dd3b
000003c0: 0053 6a3e 4277 45bd 1455 97bd 028e 65bd
000003d0: 08ee 61bc e12c 0cbe bc7a 70bc b508 40be
000003e0: 5cf1 12be e18a ed3d 2ff8 763e c76a 983d
000003f0: 342f 83bc 802a 5bbd d6b6 aa3d a16a 1bbe

fc3.bias f4 [128]
-0.12969153 -0.14756988 -0.037891842 0.011051429 -0.12371529 -0.06863839 0.06558658 -0.008854375
0.15732905 -0.07835716 0.0017957144 0.0117974235 0.06791954 -0.1777337 -0.10102858 -0.026224257
0.15144764 -0.15146871 0.197122 -0.02902712 0.093440056 0.12827422 0.08169479 0.08426002
-0.044649057 0.0859236 0.25262728 -0.06756796 0.13237172 0.04798383 -0.04838111 0.042852018
0.28168356 -0.18374704 0.06307781 0.1317757 -0.060970437 -0.0012137737 -0.08871442 -0.07482583
0.14615981 0.079973385 0.17169207 -0.1383316 0.06829626 -0.016828535 -0.054174356 0.077955164
-0.036158014 -0.09128385 0.016417392 0.09370341 -0.035687465 -0.079902634 0.1874736 0.07712231
-0.0143410945 -0.1304236 0.0073306137 -0.048239544 0.09140087 -0.035307173 -0.01935045 -0.0028351017
0.20655784 -0.053182926 -0.08111382 -0.13330042 0.09230036 -0.04044666 -0.02239031 -0.13521658
0.04880888 0.019230224 -0.097846605 0.08318237 -0.065192536 -0.042587202 0.28050035 -0.060313303
0.17626387 0.107694976 -0.011426178 -0.16753776 -0.045644417 -0.030411186 0.0030310417 -0.038094867
-0.005294599 0.04210322 -0.10723115 -0.24941519 0.2352972 0.12882338 0.29638356 0.21274354
0.34846196 -0.030139163 -0.07202498 -0.119056694 -0.091149315 -0.047850482 0.23235857 -0.07778366
0.07241354 0.18631087 -0.10473091 -0.0935453 -0.03728234 -0.0024180855 -0.060382046 -0.08162283
-0.09012179 -0.032292094 0.10321427 -0.06759379 -0.05861253 0.26743037 -0.11120898 -0.07411284
-0.012286394 -0.09876701 0.27854937 0.0023137464 -0.11857556 0.015105054 0.07673242 -0.05434598
00000000: dbcd 04be 8f1c 17be 7a34 1bbd 0e11 353c
00000010: 715e fdbd 4992 8cbd 4252 863d f111 11bc
00000020: de1a 213e b879 a0bd 2d5e eb3a fb49 413c
00000030: 6619 8b3d d3ff 35be 12e8 cebd 41d4 d6bc
00000040: 1715 1b3e 9d1a 1bbe 59da 493e 48ca edbc
00000050: 805d bf3d 515a 033e 994f a73d 8490 ac3d
00000060: eee1 36bd b6f8 af3d 5d58 813e 1261 8abd
00000070: 748c 073e b18a 443d 452b 46bd 9985 2f3d
00000080: d438 903e 2f28 3cbe f02e 813d 36f0 063e
00000090: 23bc 79bd 7d17 9fba e8af b5bd 493e 99bd
000000a0: ebaa 153e 16c9 a33d 0cd0 2f3e cda6 0dbe
000000b0: e9de 8b3d ffdb 89bc eee5 5dbd f5a6 9f3d
000000c0: 6d1a 14bd 07f3 babd c47d 863c 93e7 bf3d
000000d0: 052d 12bd fea3 a3bd 14f9 3f3e 4df2 9d3d
000000e0: e9f6 6abc c48d 05be a535 f03b d496 45bd
000000f0: 6130 bb3d 419e 10bd d684 9ebc 1dcd 39bb
00000100: e683 533e 57d6 59bd 011f a6bd e87f 08be
00000110: f907 bd3d 66ab 25bd e26b b7bc 3776 0abe
00000120: d2eb 473d b488 9d3c cd63 c8bd 855b aa3d
00000130: aa83 85bd eb6f 2ebd be9d 8f3e 150b 77bd
00000140: 847e 343e 2f8f dc3d dd34 3bbc 058f 2bbe
00000150: a4f5 3abd e120 f9bc 71a4 463b 5d09 1cbd
00000160: 517e adbb 6d74 2c3d 019c dbbd b266 7fbe
00000170: c0f1 703e 47ea 033e 96bf 973e 71d9 593e
00000180: 9b69 b23e 68e6 f6bc d581 93bd ffd3 f3bd
00000190: 7eac babd defe 43bd 68ef 6d3e 0a4d 9fbd
000001a0: 8d4d 943d 47c8 3e3e 297d d6bd ae94 bfbd
000001b0: 5eb5 18bd be78 1ebb 2a53 77bd df29 a7bd
000001c0: c691 b8bd b744 04bd 0162 d33d 9d6e 8abd
000001d0: b113 70bd a2ec 883e 89c1 e3bd 79c8 97bd
000001e0: df4c 49bc 5c46 cabd 069e 8e3e 39a2 173b
000001f0: bed7 f2bd 307b 773c e325 9d3d e499 5ebd

fc4.weight f4 [64, 128]
-0.04590288 -0.06051708 0.05792472 0.028927127 -0.021340748 -0.059798833 -0.011034303 -0.059323236
-0.023246445 0.055702474 -0.07926493 0.0023086283 0.024987305 -0.10231791 0.038971864 -0.05177001
0.10204318 -0.10223261 0.054148808 0.08673677 0.13545778 -0.041455593 -0.015066566 0.11483638
0.027292082 0.07675227 -0.0028270597 -0.07611796 -0.014483611 0.059705723 -0.042799894 -0.038470514
0.039411146 0.015482332 0.030726746 -0.058556713 0.0124777 -0.031587962 -0.080608204 -0.0565514
0.021355834 -0.116159216 0.10172195 -0.092423975 0.00711796 0.026386553 -0.018912336 -0.041890185
-0.015167501 0.0019740344 0.08363039 0.013890421 0.03316885 0.006850908 -0.044116847 -0.08799661
-0.034119148 0.02011064 -0.052839473 0.069435865 0.06528738 0.09497699 0.015387513 0.010277022
-0.031753555 -0.04634792 0.017203381 -0.037072267 0.041510157 0.03436032 -0.027858024 0.062480845
-0.082622975 -0.067626104 -0.05179888 0.019402293 0.0117727695 -0.045236092 0.06964382 -0.012564536
0.060071934 -0.03031785 0.026446836 -0.025538383 -0.06692888 0.009973475 -0.023906577 0.04346163
-0.034378607 -0.049649253 -0.06144986 -0.013576344 0.010429914 -0.04431476 0.07455595 0.12553445
0.00887262 0.075843036 -0.03167651 0.06571918 -0.08049815 0.08898571 0.09935402 0.062350623
0.09655466 -0.020902943 0.08831819 0.022987852 -0.01771725 0.05319536 -0.033890743 0.03185356
0.005804425 0.04607075 0.056822773 0.012096724 0.06711161 0.10159642 0.008496721 -0.02625836
0.050718907 -0.045947786 0.0037336561 0.06573051 0.03563203 0.025096769 0.035241287 -0.050789054
0.053719413 -0.034098636 0.059431788 0.1698334 -0.025250688 -0.08601535 0.019046944 -0.055134676
0.0464373 -0.009511199 -0.07445599 0.0058382805 -0.040869087 -0.042547505 0.09039475 0.0341193
0.13042293 -0.0739698 0.054942597 0.08784894 0.06941142 -0.0298225 0.05439176 0.045970533
0.019123178 0.0065337257 -0.0899335 -0.05598361 0.029578755 0.029870821 -0.045349453 0.04260944
-0.014543025 0.09650534 0.05634991 0.02415621 -0.059073817 -0.022515954 -0.008868992 -0.07519951
0.105151385 0.011669294 0.076020904 -0.08343783 0.06644692 -0.052304663 0.07329464 0.0345085
-0.07352663 0.018428601 0.07947528 -0.08744512 -0.094671756 -0.08247127 0.04790294 -0.1278375
0.07966909 0.057323422 0.061566632 0.035426512 0.003680286 0.06433989 -0.012841727 -0.05665367
0.028748464 -0.0076761916 -0.0007330419 0.034564033 0.008976889 0.059346218 -0.052251916 -0.065165706
0.044384774 -0.016384985 -0.1105974 -0.030347327 -0.011014884 -0.01191282 -0.047635917 -0.088914305
-0.036731705 -0.03977169 0.11306263 -0.051029548 0.047920074 -0.091287315 -0.040326726 0.010325892
0.08478635 -0.0296612 0.061050452 0.048865777 0.06434976 0.049533512 0.009288939 0.07439719
0.11415194 -0.008922147 -0.012571418 0.045118514 0.006740486 0.023593858 0.11926378 0.035501294
0.13285981 0.08239722 0.026740236 -0.0212104 0.029505786 0.0057400707 0.13450563 -0.0011968903
0.041344088 0.06036751 0.031816773 0.009514666 0.07713986 0.08467464 -0.09431508 0.063793555
-0.03955214 -0.04348052 0.0058142412 -0.012568605 0.033271514 0.081065476 0.0051208595 -0.021972487
00000000: a904 3cbd c2e0 77bd 7942 6d3d 95f8 ec3c
00000010: cbd2 aebc 9fef 74bd 39c9 34bc ecfc 72bd
00000020: 546f bebc 4728 643d a755 a2bd 5b4c 173b
00000030: 2db2 cc3c 0d8c d1bd f6a0 1f3d ca0c 54bd
00000040: 04fc d03d 555f d1bd 24cb 5d3d 0ca3 b13d
00000050: 72b5 0a3e 57cd 29bd c2d9 76bc 562f eb3d
00000060: a593 df3c 4b30 9d3d 3146 39bb bce3 9bbd
00000070: ab4c 6dbc fd8d 743d f14e 2fbd 4293 1dbd
00000080: 956d 213d 9ba9 7d3c a8b6 fb3c 2ad9 6fbd
00000090: 446f 4c3c 6162 01bd ea15 a5bd 71a2 67bd
000000a0: 6ef2 ae3c e2e4 edbd 9953 d03d c848 bdbd
000000b0: c73d e93b 9d28 d83c 0bee 9abc 0b95 2bbd
000000c0: 1c81 78bc cd5e 013b 6946 ab3d a694 633c
000000d0: 0fdc 073d 957d e03b deb3 34bd 9137 b4bd
000000e0: 85c0 0bbd 12bf a43c 346e 58bd 6434 8e3d
000000f0: 64b5 853d 4c83 c23d e81b 7c3c f460 283c
00000100: 0410 02bd 51d7 3dbd 1bee 8c3c 17d9 17bd
00000110: 8e06 2a3d 68bd 0c3d 8336 e4bc eaeb 7f3d
00000120: 3c36 a9bd 8e7f 8abd 102b 54bd 8ff1 9e3c
00000130: 93e2 403c 7b49 39bd 6ba1 8e3d 7cdb 4dbc
00000140: fd0d 763d 245d f8bc 09a7 d83c df35 d1bc
00000150: 0212 89bd c967 233c bad7 c3bc d204 323d
00000160: 95d0 0cbd 045d 4bbd d9b2 7bbd 506f 5ebc
00000170: 3be2 2a3c 6583 35bd cab0 983d 1a8c 003e
00000180: 775e 113c 9853 9b3d 3abf 01bd c797 863d
00000190: 37dc a4bd 243e b63d 1f7a cb3d 5e63 7f3d
000001a0: 73be c53d a63c abbc 2be0 b43d 0551 bc3c
000001b0: c423 91bc 61e3 593d 05d1 0abd e178 023d
000001c0: 0c33 be3b afb4 3c3d ffbe 683d 5631 463c
000001d0: d071 893d c911 d03d d535 0b3c c61b d7bc
000001e0: a1be 4f3d bf33 3cbd 5bb0 743b b89d 863d
000001f0: e4f2 113d bd97 cd3c 2b59 103d 2f08 50bd
00000200: e308 5c3d 03ab 0bbd bf6e 733d cfe8 2d3e
00000210: 88da cebc d128 b0bd 5608 9c3c e6d4 61bd
00000220: 0a35 3e3d dcd4 1bbc 627c 98bd 0c4f bf3b
00000230: 5866 27bd 4b46 2ebd e220 b93d aec0 0b3d
00000240: 978d 053e 7a7d 97bd 7d0b 613d 25ea b33d
00000250: 9327 8e3d 514e f4bc e5c9 5e3d 994b 3c3d
00000260: 36a8 9c3c dd18 d63b 0e2f b8bd 124f 65bd
00000270: 254f f23c a7b3 f43c 59c0 39bd 3c87 2e3d
00000280: de45 6ebc 97a4 c53d 2acf 663d 3ee3 c53c
00000290: 63f7 71bd 6173 b8bc 404f 11bc 3302 9abd
000002a0: 9c59 d73d 9130 3f3c d9b0 9b3d 74e1 aabd
000002b0: 5315 883d 6a3d 56bd 801b 963d c958 0d3d
000002c0: 2195 96bd 94f7 963c f0c3 a23d 6d16 b3bd
000002d0: 44e3 c1bd b2e6 a8bd e035 443d d5e7 02be
000002e0: 8c29 a33d f7cb 6a3d 4b2d 7c3d 641b 113d
000002f0: f430 713b a2c4 833d 1b66 52bc ae0d 68bd
00000300: e681 eb3c 9088 fbbb 9c29 40ba 0493 0d3d
00000310: cd13 133c 0515 733d 1b06 56bd 9975 85bd
00000320: cfcc 353d ce39 86bc e480 e2bd f59a f8bc
00000330: c677 34bc fd2d 43bc e11d 43bd b418 b6bd
00000340: fc73 16bd a4e7 22bd 618d e73d 5c04 51bd
00000350: d747 443d d8f4 babd a32d 25bd ee2d 293c
00000360: 77a4 ad3d 0bfc f2bc 0a10 7a3d 7b27 483d
00000370: cfc9 833d a7e3 4a3d a230 183c 8e5d 983d
00000380: 7ec8 e93d 322e 12bc 59f8 4dbc 31ce 383d
00000390: 4bdf dc3b e847 c13c 9240 f43d ce69 113d
000003a0: 670c 083e e0bf a83d 570e db3c 6fc1 adbc
000003b0: 1eb6 f13c 3417 bc3b d8bb 093e f9e0 9cba
000003c0: 6b58 293d ec43 773d 4e52 023d 67e3 1b3c
000003d0: 81fb 9d3d e669 ad3d 4428 c1bd 32a6 823d
000003e0: 6d01 22bd a118 32bd 6485 be3b 8dec 4dbc
000003f0: b647 083d a805 a63d e2cc a73b a5ff b3bc

fc4.bias f4 [64]
0.17328516 0.15610068 0.12306996 -0.106335126 0.05588179 0.49274474 0.07763996 -0.09886351
0.2129293 -0.06061939 -0.019012565 0.54945874 -0.10008582 -0.22398338 -0.016177097 0.030903406
0.31115675 -0.10943645 -0.0014383702 0.06916416 0.27962178 0.07416042 -0.14153309 0.059115265
-0.148224 0.3735582 0.20305039 -0.0747288 -0.054808836 0.07708132 -0.1357962 0.027467728
0.12517862 -0.023609286 0.02313314 0.19412845 -0.08557325 0.022952039 0.20145553 0.009746152
-0.11270265 -0.05547553 -0.13575354 -0.032015257 0.0029640498 0.14951712 0.028304426 0.0019051816
-0.06441575 0.098095536 -0.0943809 0.13491234 0.016717723 -0.08710681 0.06618343 0.2181898
-0.04312892 0.022191264 -0.057767987 0.026969202 -0.10100637 -0.07476388 -0.08370994 0.09958299
00000000: aa71 313e dbd8 1f3e 1a0c fc3d 3bc6 d9bd
00000010: 4ee4 643d 0a49 fc3e b301 9f3d f478 cabd
00000020: 230a 5a3e 0a4c 78bd 3dc0 9bbc 54a9 0c3f
00000030: cbf9 ccbd e65b 65be d585 84bc 2429 fd3c
00000040: f04f 9f3e 3820 e0bd b287 bcba f0a5 8d3d
00000050: 962a 8f3e 6be1 973d 0dee 10be d922 723d
00000060: 08c8 17be 0543 bf3e 71ec 4f3e 6a0b 99bd
00000070: 3b7f 60bd d0dc 9d3d 290e 0bbe 0004 e13c
00000080: d32e 003e 4368 c1bc b681 bd3c 9cc9 463e
00000090: 0741 afbd ea05 bc3c 5c4a 4e3e 53ae 1f3c
000000a0: a6d0 e6bd 4f3a 63bd fa02 0bbe 6e22 03bd
000000b0: 8140 423b 041b 193e afde e73c 49b7 f93a
000000c0: 68ec 83bd 50e6 c83d c64a c1bd 7626 0a3e
000000d0: 9bf3 883c 0e65 b2bd 2e8b 873d 266d 5f3e
000000e0: f3a7 30bd 74ca b53c 209e 6cbd 84ee dc3c
000000f0: 6ddc cebd ce1d 99bd 1e70 abbd 2bf2 cb3d

output_logC.weight f4 [1, 64]
0.19808856 0.27699608 0.45553142 -0.3228451 -0.040692266 0.9635899 -0.20189404 -0.008487953
-0.716467 -0.07108629 -0.063014485 0.0242305 -0.28711304 -0.0043908916 -0.16607343 -0.010460416
0.42848486 -0.36500233 -0.06470072 -0.5489581 0.44551513 0.7826547 0.17999896 -0.68815476
-0.21720847 0.8146324 0.5050466 -0.052336108 -0.3173117 0.06688751 0.09395558 -0.15351829
0.36478266 -1.0426154 0.01658419 -1.3582674 0.015191377 -1.1160997 -0.3435763 -0.08398331
-0.011291784 -0.1884527 0.039140157 -0.11337951 0.030079577 -0.23194325 -0.040269762 -1.1845386
0.08307344 0.23244615 -0.012140891 -0.74916095 -0.2915032 -0.11169206 -0.086792566 -0.58039093
0.015085198 -0.09777053 0.102948904 -0.33754137 0.0131279295 -0.0034268552 -0.076997764 -0.048347138
00000000: bad7 4a3e 6ed2 8d3e 6a3b e93e f44b a5be
00000010: efac 26bd d4ad 763f 50bd 4ebe 0e11 0bbc
00000020: 626a 37bf b095 91bd bd0d 81bd 0b7f c63c
00000030: 7b00 93be 78e1 8fbb 270f 2abe 2a62 2bbc
00000040: 5e62 db3e 96e1 babe d081 84bd 8588 0cbf
00000050: 8f1a e43e 0f5c 483f a651 383e e92a 30bf
00000060: e66b 5ebe c08b 503f bc4a 013f 635e 56bd
00000070: ae76 a2be 52fc 883d c86b c03d e633 1dbe
00000080: cbc4 ba3e 6c74 85bf 91db 873c b5db adbf
00000090: 41e5 783c 5bdc 8ebf 3ce9 afbe 71ff abbd
000000a0: 2d01 39bc bff9 40be 6e51 203d 8433 e8bd
000000b0: 7269 f63c 8882 6dbe e8f1 24bd f69e 97bf
000000c0: 6822 aa3d 5d06 6e3e 96ea 46bc 03c9 3fbf
000000d0: e83f 95be cfbe e4bd 4dc0 b1bd 8094 14bf
000000e0: e827 773c ea3b c8bd e0d6 d23d 39d2 acbe
000000f0: 8716 573c 1795 60bb 01b1 9dbd a607 46bd

output_n.weight f4 [1, 64]
0.031409122 0.038389873 -0.23401268 0.06992791 -0.024912048 -0.6948548 -0.14736742 0.08309621
0.86454904 -0.06978372 -0.038937632 0.02149413 -0.29098123 0.04391883 0.0073120953 -0.078693636
-0.43468034 0.0118165035 -0.13142602 0.031118557 -0.18784451 -0.33386743 0.15113921 0.4272219
-0.2019983 -0.46913722 -0.77203315 0.026734011 0.19794142 -0.057872113 -0.07071528 -0.34215742
-0.2413386 0.55541307 -0.026906662 0.814395 -0.0866586 0.8717339 0.22640957 -0.07864308
-0.03528193 -0.1035645 0.057275902 0.05851152 -0.13605483 0.29910007 -0.26806745 0.85068303
-0.07229426 -0.37542713 -0.055559706 0.47709796 0.009730769 -0.047352035 0.3725152 0.43273512
-0.15786676 -0.042722262 -0.15917261 0.1468315 -0.055718485 -0.0013329617 -0.026056526 -0.24284379
00000000: daa6 003d b33e 1d3d 05a1 6fbe 5d36 8f3d
00000010: 5a14 ccbc 01e2 31bf 7ce7 16be 592e aa3d
00000020: 1653 5d3f c4ea 8ebd 117d 1fbd 7514 b03c
00000030: 7efb 94be 3be4 333d 4d9a ef3b 212a a1bd
00000040: 6c8e debe 029a 413c 8b94 06be 58ec fe3c
00000050: 505a 40be acf0 aabe 3dc4 1a3e d4bc da3e
00000060: a4d8 4ebe c132 f0be f7a3 45bf 4901 db3c
00000070: 28b1 4a3e 4f0b 6dbd 2cd3 90bd 422f afbe
00000080: 7721 77be 8d2f 0e3f 5c6b dcbc 317c 503f
00000090: 107a b1bd f429 5f3f e9d7 673e a00f a1bd
000000a0: c983 10bd a019 d4bd 239a 6a3d c7a9 6f3d
000000b0: f551 0bbe a523 993e 2340 89be 5dc6 593f
000000c0: 030f 94bd fc37 c0be 9392 63bd 2f46 f43e
000000d0: ce6d 1f3c 35f4 41bd 50ba be3e 758f dd3e
000000e0: d3a7 21be 8afd 2ebd 25fe 22be ff5a 163e
000000f0: 1139 64bd c6b6 aeba 7f74 d5bc 0bac 78be
